…
fo":{"elapsed":333,"status":"ok","timestamp":1643552832133,"user":{"displayName":"박영광","photoUrl":"https://lh3.googleusercontent.com/a/default-user=s64","userId":"14660446885232711204"},"user_tz":-540},"id":"--ZOmZA-DEub","outputId":"da0b4a44-6460-4b0d-87c4-d697fd7e39ba"},"outputs":[{"name":"stdout","output_type":"stream","text":["Model: \"sequential_6\"\n","_________________________________________________________________\n"," Layer (type)                Output Shape              Param #   \n","=================================================================\n"," conv2d_78 (Conv2D)          (None, 32, 32, 64)        1792      \n","                                                                 \n"," conv2d_79 (Conv2D)          (None, 32, 32, 64)        36928     \n","                                                                 \n"," max_pooling2d_30 (MaxPoolin  (None, 16, 16, 64)       0         \n"," g2D)                                                            \n","                                                                 \n"," conv2d_80 (Conv2D)          (None, 16, 16, 128)       73856     \n","                                                                 \n"," conv2d_81 (Conv2D)          (None, 16, 16, 128)       147584    \n","                                                                 \n"," max_pooling2d_31 (MaxPoolin  (None, 8, 8, 128)        0         \n"," g2D)                                                            \n","                                                                 \n"," conv2d_82 (Conv2D)          (None, 8, 8, 256)         295168    \n","                                                                 \n"," conv2d_83 (Conv2D)          (None, 8, 8, 256)         590080    \n","                                                                 \n"," conv2d_84 (Conv2D)          (None, 8, 8, 256)         590080    \n","                                                                 \n"," max_pooling2d_32 (MaxPoolin  (None, 4, 4, 256)        0         \n"," g2D)                                                            \n","                                                                 \n"," conv2d_85 (Conv2D)          (None, 4, 4, 512)         1180160   \n","                                                                 \n"," conv2d_86 (Conv2D)          (None, 4, 4, 512)         2359808   \n","                                                                 \n"," conv2d_87 (Conv2D)          (None, 4, 4, 512)         2359808   \n","                                                                 \n"," max_pooling2d_33 (MaxPoolin  (None, 2, 2, 512)        0         \n"," g2D)                                                            \n","                                                                 \n"," conv2d_88 (Conv2D)          (None, 2, 2, 512)         2359808   \n","                                                                 \n"," conv2d_89 (Conv2D)          (None, 2, 2, 512)         2359808   \n","                                                                 \n"," conv2d_90 (Conv2D)          (None, 2, 2, 512)         2359808   \n","                                                                 \n"," max_pooling2d_34 (MaxPoolin  (None, 1, 1, 512)        0         \n"," g2D)                                                            \n","                                                                 \n"," flatten_6 (Flatten)         (None, 512)               0         \n","                                                                 \n"," dense_20 (Dense)            (None, 256)               131328    \n","                                                                 \n"," dropout_14 (Dropout)        (None, 256)               0         \n","                                                                 \n"," dense_21 (Dense)            (None, 256)               65792     \n","                                                                 \n"," dropout_15 (Dropout)        (None, 256)               0         \n","                                                                 \n"," dense_22 (Dense)            (None, 10)                2570      \n","                                                                 \n","=================================================================\n","Total params: 14,914,378\n","Trainable params: 14,914,378\n","Non-trainable params: 0\n","_________________________________________________________________\n"]}],"source":["tf.model.compile(loss='categorical_crossentropy', optimizer = tf.keras.optim
…
